…
cy&#x27;</span>])</span><br><span class="line">model.summary()</span><br><span class="line">model.fit(training_images, training_labels, epochs=<span class="number">5</span>)</span><br><span class="line">test_loss = model.evaluate(test_images, test_labels)</span><br><span class="line"></span><br></pre></td></tr></table></figure><pre><code>2.2.0Model: &quot;sequential_1&quot;_________________________________________________________________Layer (type)                 Output Shape              Param #   =================================================================conv2d (Conv2D)              (None, 26, 26, 64)        640       _________________________________________________________________max_pooling2d (MaxPooling2D) (None, 13, 13, 64)        0         _________________________________________________________________conv2d_1 (Conv2D)            (None, 11, 11, 64)        36928     _________________________________________________________________max_pooling2d_1 (MaxPooling2 (None, 5, 5, 64)          0         _________________________________________________________________flatten_1 (Flatten)          (None, 1600)              0         _________________________________________________________________dense_2 (Dense)              (None, 128)               204928    _________________________________________________________________dense_3 (Dense)              (None, 10)                1290      =================================================================Total params: 243,786Trainable params: 243,786Non-trainable params: 0_________________________________________________________________Epoch 1/51875/1875 [==============================] - 35s 19ms/step - loss: 0.4311 - accuracy: 0.8443Epoch 2/51875/1875 [==============================] - 35s 19ms/step - loss: 0.2897 - accuracy:
…
 93s/epoch - 198ms/step&lt;keras.callbacks.History at 0x7f44cd36b910&gt;</code></pre><figure class="highlight python"><table><tr><td class="gutter"><pre><span class="line">1</span><br></pre></td><td class="code"><pre><span class="line"><span class="built_in">print</span>(network.summary())</span><br></pre></td></tr></table></figure><pre><code>Model: &quot;sequential_1&quot;_________________________________________________________________ Layer (type)                Output Shape              Param #   ================================================================= conv2d_2 (Conv2D)           (None, 26, 26, 30)        300        max_pooling2d_2 (MaxPooling  (None, 13, 13, 30)       0          2D)                                                              conv2d_3 (Conv2D)           (None, 13, 13, 60)        16260      max_pooling2d_3 (MaxPooling  (None, 7, 7, 60)         0          2D)                                                              flatten (Flatten)           (None, 2940)              0          dense (Dense)               (None, 500)               1470500    dense_1 (Dense)             (None, 10)                5010      =================================================================Total params: 1,492,070Trainable params: 1,492,070Non-trainable params: 0_________________________________________________________________None</code></pre><figure class="highlight python"><table><tr><td class="gutter"><pre><span class="line">1</span><br><span class="line">2</span><br><span class="line">3</span><br><span class="
…
